model.pth (torch, 192731 bytes, 4 tensors)

conv1.weight f4 [16, 8, 17]
000000 38 be 4f bb 82 de bf 3c f0 fd 9a bd 37 eb 8e bd
       -0.0031699073 0.02342153 -0.07567966 -0.069784574
000010 1b 6d 9d bd d5 48 7f bc 41 55 69 bd fb 2b e8 bd
       -0.07686826 -0.015581329 -0.05696607 -0.113365136
000020 bc 99 39 3c 34 02 f8 bc db d2 9b 3c 82 de bd bc
       0.011328157 -0.030274488 0.019021442 -0.023177389
000030 8a 0e 02 bc 51 d1 31 3d e6 b8 13 bd 7c 88 a6 3d
       -0.007938037 0.04341251 -0.036065005 0.08131501
000040 5e 77 cf bb ac 83 b2 3d 08 6b d8 3c c0 06 1d 3c
       -0.0063313683 0.08716521 0.026418224 0.009584129
000050 19 7c a8 3d 2d 96 b4 3b 93 e3 85 bb 57 a3 3d 3d
       0.08226795 0.0055110664 -0.004085967 0.04629835
000060 38 45 54 3d 34 bf 94 bd 4c f3 b6 bc 7d 44 ba bb
       0.051823825 -0.072630316 -0.02233281 -0.005684434
000070 98 de 19 3d 64 00 52 bd 0b 3e 47 bd 28 3b 8b bd
       0.037565798 -0.051269904 -0.048643153 -0.067983925
000080 fa 10 70 bc ac dd 92 bc e3 cf c6 bd 17 10 bc bd
       -0.014652485 -0.017927967 -0.0970762 -0.091827564
000090 00 95 f4 bd 87 34 b1 bd 9b 12 8a bd 3c 9b 47 bc
       -0.11942482 -0.08652597 -0.0674183 -0.012183007
0000a0 8b 08 71 3c b4 3f 05 3d 60 0a fb bc 4c 51 f5 3c
       0.014711509 0.032531455 -0.030644596 0.029945992
0000b0 ad 92 23 3d 21 98 05 3e 73 44 fc 3d 21 b1 33 3d
       0.039934803 0.13046314 0.12317743 0.043870095
0000c0 0a 77 90 3d fa 0d 83 3d 65 2b d3 3d 7b 2c 46 be
       0.07053955 0.0639915 0.10311011 -0.19352905
0000d0 c9 cd b3 bd ca 16 11 be 3e 31 05 be c3 ae 95 bd
       -0.08779485 -0.1416885 -0.13007066 -0.07308724
0000e0 b5 b6 a4 bd 73 67 5b 3c 77 40 27 3d 5e 11 8d bd
       -0.08042661 0.013391363 0.040832963 -0.06888078
0000f0 36 ba 1f 3d 28 d8 d1 3c c6 af 93 3d 77 7e a3 3c
       0.038995944 0.025615767 0.072112605 0.019957764
000100 71 65 48 3d 9a 31 71 3d f6 4b b0 3d 2b 4b c5 3d
       0.048924867 0.058885194 0.086082384 0.09633478
000110 c6 f0 bb bd c0 62 d2 bd 54 d2 1d be a1 55 f2 bd
       -0.09176783 -0.10272741 -0.15412265 -0.11832739
000120 b9 52 c5 bd 04 c5 cf bd c3 10 88 3d c0 e5 1d bc
       -0.09634919 -0.101449996 0.06643822 -0.009637296
000130 ac 53 96 bb 44 14 eb 3c 43 dc ee 3d 3d 4e 37 3d
       -0.004587611 0.028696187 0.11663105 0.04475235
000140 23 13 12 3d 7c 0d 41 3d 9b be e8 3d 14 df b6 3d
       0.03566278 0.047132 0.1136448 0.089292675
000150 ea 2a aa 3c 8a 57 1f be b1 f0 24 be c5 e3 7a bd
       0.020772416 -0.15560737 -0.16107441 -0.061252374
000160 d1 e0 1d bd cb 33 1c bd 91 76 55 bd 91 6b 44 bd
       -0.03854448 -0.03813533 -0.052115027 -0.047954146
000170 cb 31 29 3d 91 af 61 3c 44 4a 01 3d 2f 39 ef 3c
       0.041307252 0.013774768 0.031564966 0.029202072
000180 52 92 9c 3d 42 ad b5 3d 79 b0 0f 3e 88 c8 1b 3e
       0.07645096 0.08870937 0.14032163 0.15213215
000190 b4 70 9a 3d 2c e1 e6 3d 96 ad 89 bd 25 dd a7 bd
       0.07541028 0.11273417 -0.06722562 -0.08196477
0001a0 25 99 93 3c 55 2c 1b bd 69 85 a5 bd 39 0a 89 bb
       0.018017361 -0.037884075 -0.080820866 -0.004182127
0001b0 e4 d2 cf bb 8a 98 21 3b 2c d2 e0 3c e3 5a 6c 3c
       -0.006342279 0.002465757 0.027443968 0.014425966
0001c0 92 0f 09 bd 8d ce 06 bd 42 bf f1 3d 20 eb e8 3d
       -0.033462115 -0.032911826 0.11804058 0.113729715
0001d0 4d 5b 84 3c 83 16 0d 3e b0 c7 9a 3c e5 4a bf 3c
       0.016156817 0.13778119 0.018894047 0.023351142
0001e0 80 2d fe 3b b7 df 29 bc 9b e4 12 bd 2a 8d e3 bd
       0.007756889 -0.010368279 -0.035862546 -0.11110909
0001f0 fd e4 cc bd 42 52 52 bd ff 08 fa bc 6e 7e 72 3c
       -0.100046135 -0.05134798 -0.030521868 0.014800651
000200 06 d7 db bc 7f 3e 65 3c 5b 08 4f bd 02 29 70 3b
       -0.02683593 0.013991951 -0.050545078 0.0036645536
000210 5d f9 98 3d 57 89 4d 3d 6e f3 db 3d 68 43 1f 3b
       0.07469437 0.050179806 0.1073979 0.0024301652
000220 df c3 26 be 73 07 c1 bd 31 8e f1 bd 9c ff 33 be
       -0.16285656 -0.09425249 -0.11794699 -0.17577976
000230 93 28 ac bd fc 61 dc bd 5e 8f b1 bd 2e 31 aa bd
       -0.084061764 -0.107608765 -0.08669923 -0.083101615
000240 a5 0a 13 be 80 58 07 be a3 cf 03 be 8b 3b 51 bc
       -0.1435953 -0.13217354 -0.12872176 -0.012770544
000250 e8 26 b9 bd 70 43 bb 3c 4f 26 2e bd e7 b5 54 3c
       -0.09040624 0.022859305 -0.042517003 0.012982822
000260 db 4f a1 3d 1b 05 38 be b3 ad 54 be 9e 60 01 be
       0.07876559 -0.17970698 -0.20769386 -0.12634513
000270 48 86 3f be 40 b7 c1 bd 33 de db bd 6a 1f aa bd
       -0.18703568 -0.0945878 -0.107357405 -0.08306773
000280 a2 31 0f be 25 2f 3a be 05 43 50 be d1 c6 3a be
       -0.13983777 -0.18182047 -0.20338066 -0.18239905
000290 72 13 8f bd ec d1 16 be 84 0f 02 be c8 c6 00 be
       -0.06986131 -0.14728516 -0.12701231 -0.12575829
0002a0 96 7c f7 bd b9 c8 c2 3b ca 44 a2 3c 69 11 4d ba
       -0.1208431 0.005944338 0.019808192 -0.0007822724
0002b0 ec b6 a9 3d 18 a0 5a 3d 1f 65 3d 3d 38 c1 5e 3d
       0.08286843 0.053375334 0.046239015 0.054383487
0002c0 8e b6 1a bd 3a bf e5 3c 39 de 2a bc 90 f2 95 3c
       -0.037771754 0.028045285 -0.010428959 0.01830414
0002d0 aa 6d 60 3d eb 0f 85 3b 48 17 d6 3d 94 67 1f 3d
       0.054792084 0.0040607355 0.10453659 0.03891714
0002e0 52 91 99 3d 3d c4 fe 3c 1c 21 63 bd a0 f3 7a bd
       0.07498421 0.031099433 -0.055451497 -0.061267495
0002f0 0b 26 a8 bd 07 22 94 bc 98 5d a7 bd 96 f4 c0 bd
       -0.08210381 -0.018082632 -0.081721485 -0.09421651
000300 ad f2 bb bc d9 15 d6 bd 60 eb a5 bd 7f 1f ae bd
       -0.022942865 -0.10453386 -0.08101535 -0.08502101
000310 20 8c b9 3a fc 9e 1d 3d a3 5d a8 3b 70 cc 5b bd
       0.001415614 0.038481697 0.0051381155 -0.053661764
000320 84 1f 3d 3d 21 da 77 3d ef 2a eb bc c6 be 21 3d
       0.046172634 0.06051076 -0.028706996 0.039488576
000330 02 56 8e bb ac cf 9d bd 89 e8 3d bd b5 76 b7 bd
       -0.004343749 -0.07705626 -0.04636434 -0.089581884
000340 dc d0 22 bc 47 ad b8 3b 10 af e6 bd 5b 32 91 bd
       -0.009937491 0.0056358906 -0.11263859 -0.07089683
000350 60 cc 1c bd b8 9d a8 3c d6 4b 9c bd 82 9c 13 bd
       -0.038280845 0.020583019 -0.07631652 -0.03603793
000360 90 fd ef bc a9 c7 7b bd c5 44 6a bd 09 84 3b bd
       -0.029295713 -0.061469708 -0.05719449 -0.045780215
000370 c7 ee 56 bd 77 de f6 bc 0c d9 c8 3a ca 35 79 bc
       -0.05247381 -0.030135376 0.0015323474 -0.015210578
000380 34 36 4b bd 17 dc 1b 3d 55 cf 45 3d 1f 9c d1 bc
       -0.04961224 0.03805169 0.04829343 -0.02558714
000390 76 17 02 bd 9f e0 b3 bd c6 2b 89 bd 98 08 36 bc
       -0.031760655 -0.087830774 -0.06697802 -0.011110447
0003a0 f9 b9 5e bc d8 04 02 3d 0e 35 9e bc 65 a0 4e 3c
       -0.013594144 0.0317429 -0.019312408 0.012611483
0003b0 c8 0f 3d 3d 6a d1 e6 3d 86 65 28 3d ae e0 8c bd
       0.04615763 0.11270411 0.041112445 -0.06878792
0003c0 27 8b d0 bc 51 26 06 bd 0a ae 9f bc 30 d7 88 3c
       -0.025456978 -0.032751385 -0.019492168 0.016704172
0003d0 b8 83 54 bd 29 1b 1d bd 3c ab be bd 18 e0 38 bd
       -0.05188343 -0.03835598 -0.09310004 -0.045135587
0003e0 bc d8 c1 bd e2 28 17 3c f0 15 95 bd 3f 7b 38 bd
       -0.09465167 0.009226056 -0.07279575 -0.04503941
0003f0 1e d3 75 bd 4a 9e 67 3d fe 18 cb bc 68 d6 10 3c
       -0.06001579 0.05654744 -0.02479219 0.008840181

conv2.weight f4 [32, 16, 17]
000000 b4 89 5e bc b2 a1 67 bc 47 1c 6b 3c 58 c0 96 bc
       -0.013582636 -0.014137672 0.014350004 -0.018402264
000010 ce 51 63 3c 59 77 62 bc 7e d3 ae bc 61 8e 70 bc
       0.013874484 -0.0138224 -0.021341082 -0.014682383
000020 c2 a8 18 bd 76 8e e1 bb f0 c3 51 bd b1 31 11 bd
       -0.037270315 -0.0068834377 -0.05121225 -0.03544778
000030 04 39 04 bc d2 aa d9 bc 1e e5 eb bb 3b 7c 3a 3c
       -0.008070234 -0.026570711 -0.0071989438 0.011382158
000040 4e a9 a7 bb 7b 1a 6f 3b c4 0a 0b 3c bc 4b 1d bc
       -0.0051166182 0.003648429 0.008486453 -0.009600576
000050 4c 5e 32 3c 4a d4 02 3d 4a dc 21 3d 47 ac a9 3c
       0.01088674 0.031940736 0.039516725 0.020712031
000060 05 65 d8 3c 25 f7 4b bd 0f fa 67 bd 6a 64 82 bd
       0.026415357 -0.049796242 -0.05663496 -0.06366809
000070 54 dc ae 3c 08 98 d2 3c 47 f8 c8 b9 4f 41 65 3d
       0.021345295 0.02570726 -0.00038331954 0.055970486
000080 36 7f 74 bc a0 86 9a 3c 7a 68 e1 bc a0 6f dd bb
       -0.014922908 0.018863022 -0.027515639 -0.0067576915
000090 a0 c3 c2 3a 9e 29 4b bd 98 7d 00 3a 84 b0 c2 3b
       0.0014859326 -0.049600236 0.00049015274 0.0059414525
0000a0 05 ee aa bc d5 51 44 bd f4 5a 49 bc 8d 0a 16 bc
       -0.02086545 -0.047929604 -0.012289751 -0.009157789
0000b0 fd 76 1a bd e3 18 63 3b a2 87 26 bd 73 28 db bc
       -0.037711132 0.0034652285 -0.040656693 -0.026752686
0000c0 bd 2b 24 bd fe 89 fd bc ad 31 f2 3c 9a 72 6f bc
       -0.040080775 -0.030949589 0.029564703 -0.0146147255
0000d0 e5 a6 43 bc 5d 2e 29 bd 16 53 14 bd bd 02 69 3c
       -0.011941646 -0.04130398 -0.03621205 0.014221844
0000e0 46 57 88 bb b2 86 c1 3c 96 93 8a bc 51 b4 7f bc
       -0.0041607944 0.023623798 -0.016916078 -0.015606956
0000f0 b4 b2 8b 3c 89 45 75 3c 57 fc 32 bb a8 2f f2 bc
       0.017052986 0.014970192 -0.002731105 -0.02956374
000100 ac 0e f1 bc 06 c7 eb bc cf b8 a4 3a 77 a7 66 bc
       -0.029425941 -0.028781425 0.0012567284 -0.014078013
000110 54 e1 a1 bc de 51 f1 bc f5 25 da bc 3b 21 e3 3b
       -0.019760765 -0.029457983 -0.026629427 0.0069314516
000120 29 20 7e bc 89 fb a2 bb 3b 42 27 3c cc a8 93 3b
       -0.015510597 -0.004973833 0.010208662 0.004506206
000130 96 3e 40 3b 9b e7 7f 3c 1d 81 38 bc e0 1e 1e 3a
       0.002933418 0.015619184 -0.011261252 0.00060318224
000140 30 53 a6 bc 7a 68 e6 bb 44 10 88 bc aa 41 86 3b
       -0.020303339 -0.0070314975 -0.016609319 0.0040971832
000150 8d fe ac 3c 9d c6 0c bd 08 08 a4 bc 1b d6 74 bb
       0.021117473 -0.0343691 -0.02002336 -0.0037359062
000160 ea cf b9 bc dd 0d 0a bd 91 61 b6 3c 1a a4 ff 3c
       -0.022682149 -0.033704627 0.02226332 0.03120618
000170 47 ae 99 bb a7 c8 ec 3c 11 b5 36 3d 69 67 28 bc
       -0.004689965 0.028904272 0.044606272 -0.010278561
000180 fb ab 7f ba 9a 4a df bc 20 e6 30 bd 1b 60 c4 bc
       -0.0009753105 -0.027257252 -0.043188214 -0.023971608
000190 9a cf ca bc 81 c7 03 bd 94 5e a3 3c 8b 53 65 3b
       -0.024757195 -0.032172684 0.01994256 0.0034992422
0001a0 0f 12 88 3c d8 9d 21 3c ff 75 e3 3c 41 69 5f 3c
       0.016610174 0.009864293 0.027766226 0.013635934
0001b0 3e db 09 bd 35 db 7c b8 d1 43 f9 bc ee 5b 62 bd
       -0.03365635 -6.0285634e-05 -0.030427845 -0.055263452
0001c0 d9 87 38 bd fc 84 31 bc 48 1f 6f 3c 4b c2 06 bd
       -0.04505143 -0.010834929 0.01459486 -0.032900136
0001d0 24 fe 4e 3b bb 4a 4a bc 89 d5 8c bc 51 5f 49 bb
       0.0031584585 -0.012346919 -0.017191665 -0.003072698
0001e0 c7 7a 02 bd 88 77 47 bd ac 11 d5 bc d5 2e 1a bd
       -0.03185537 -0.04869798 -0.026009403 -0.03764232
0001f0 9f 3f 21 b9 48 62 be bc 5e 0f 12 bd b7 89 f7 bc
       -0.00015377857 -0.023240224 -0.035659187 -0.030217035
000200 62 a1 f4 bc 3e d2 59 bb 29 1e c2 bc 11 fd 4e bd
       -0.02986211 -0.0033236886 -0.023696022 -0.05053431
000210 25 f6 f1 bc 2b 6d 54 3c bc a6 49 bd 98 15 f8 bc
       -0.029536316 0.012965481 -0.049231276 -0.030283734
000220 63 63 05 3d e3 20 ad bc 7d ef 2c 3c b3 c0 1e bd
       0.032565486 -0.021133846 0.010555145 -0.03875799
000230 91 0c e9 3c fd 95 37 3d 5d 49 93 3c f8 48 77 bc
       0.028448375 0.044820774 0.017979318 -0.015093081
000240 55 33 37 3c fc 4c 1f 3d 57 99 3b 3c ca a9 77 bc
       0.011181672 0.038891777 0.011450133 -0.015116164
000250 86 87 00 bd 6d 14 90 bc d2 7f da bb 5b 3d ad bc
       -0.031379245 -0.017587865 -0.0066680694 -0.02114742
000260 fa 49 95 3c bb 23 84 bc 20 10 17 3d 06 ec 98 bc
       0.018223751 -0.016130319 0.036880612 -0.018667232
000270 29 85 a0 bc fa 30 94 bc 0c 57 58 bc 64 f4 37 bc
       -0.019594746 -0.01808976 -0.013204347 -0.011227701
000280 66 4c 89 bd 92 87 3b bd 89 6f 36 bd 1b 09 ef bc
       -0.06704025 -0.045783587 -0.044539962 -0.029179147
000290 e3 e9 6b bc 54 33 e3 ba df 7c c7 3c e5 d9 af bc
       -0.014399025 -0.0017334023 0.024351535 -0.021466205
0002a0 02 c2 a2 3b 81 39 41 3d 29 e4 cf 3a cd 58 f7 bc
       0.004966975 0.04717398 0.0015860844 -0.03019371
0002b0 0f c3 65 3c ce bc 36 bd d0 ae 5e 3c 78 bf 39 3d
       0.014023556 -0.044613652 0.013591483 0.045348614
0002c0 a2 a9 a3 3c ab 91 16 3d 7b 07 4a 3d 5b e8 21 3d
       0.019978348 0.036760014 0.04932354 0.039528232
0002d0 e9 66 ae 3b 50 c1 99 ba 4f 16 03 bc 53 82 b9 bc
       0.0053223264 -0.0011730585 -0.008000924 -0.022645151
0002e0 0a 69 2e bd ba ee a7 3c 30 3e 31 3d bb ce 0b bd
       -0.04258064 0.020499576 0.043272197 -0.0341327
0002f0 7f ab fe bc e6 f0 ca bc 85 29 56 bd 9d 49 25 bd
       -0.031087635 -0.024773072 -0.05228569 -0.040353406
000300 6a 84 e9 bc 83 69 00 bd e4 21 9f bc 4f 32 a0 bc
       -0.028505523 -0.031350624 -0.01942534 -0.019555239
000310 25 db 57 bd e2 a2 e1 bb ee 9a 18 bd 44 07 35 bd
       -0.052699227 -0.006885872 -0.037257127 -0.044196382
000320 ac 8c a6 bb 30 70 f7 bb cb 5f d1 3a 5b ed c1 bc
       -0.0050826874 -0.0075512156 0.0015973983 -0.02367275
000330 89 f4 f4 3c 14 47 40 3c 64 4e 07 3d 84 58 82 3b
       0.02990176 0.011735696 0.033033744 0.003977837
000340 3c 39 f0 3c e2 1c ea bc 9e 9c 37 3c 46 b2 15 3c
       0.029324166 -0.028578226 0.011206774 0.009136742
000350 1f 81 ec bc c7 20 76 bd 57 6b f4 bc f2 7b 45 3c
       -0.028870163 -0.060089853 -0.02983634 0.012053477
000360 42 b2 19 bd d7 75 89 bc 21 0a 8a 3c c1 23 60 3c
       -0.037523516 -0.016779823 0.016850533 0.013680399
000370 1a db 31 3d c4 b8 9b bc 2a 6d cb bc ad ae c6 bc
       0.043421842 -0.019009002 -0.024832327 -0.024253214
000380 a9 d8 09 bd 2a 69 4f bd f3 d8 ef bc ea c9 6f bd
       -0.03365389 -0.0506374 -0.029278254 -0.05854217
000390 9d ce 13 bb 6b 27 89 bc e2 1e f0 bb 9c 36 42 bc
       -0.002255357 -0.016742429 -0.0073279003 -0.01185384
0003a0 53 4f f9 bc fb 00 34 bd 98 7d 08 bd 92 54 94 bc
       -0.030433333 -0.043946248 -0.0333229 -0.018106733
0003b0 77 b0 06 bd 89 24 db bb 84 72 64 3d 34 7e 75 3c
       -0.032883134 -0.006687705 0.055773273 0.014983702
0003c0 df 4d 64 3d 20 71 83 3d 35 af 5b 3d 02 ec 04 bd
       0.055738326 0.06418061 0.053633887 -0.032451637
0003d0 30 46 9b bb 08 db 43 bd fa e6 35 bc 8e 82 cd ba
       -0.0047385916 -0.047816306 -0.011102432 -0.0015679167
0003e0 1f e0 b7 bc c9 14 94 3c 2b be f0 39 b9 ba 39 3d
       -0.022445736 0.018076317 0.00045918053 0.04534409
0003f0 f9 32 a8 3c a2 0c 50 3d 80 e8 5b 3d 9f ec f6 3c
       0.020532118 0.050793298 0.053688526 0.030142127

conv3.weight f4 [64, 32, 17]
000000 20 fa e6 ba 96 a7 df 3b f2 b9 3b bb af bf f6 bb
       -0.001762215 0.0068253977 -0.0028644768 -0.0075301747
000010 63 29 e0 ba 97 11 14 bc 5b 41 63 bb ab 18 5c 3b
       -0.0017102178 -0.009037397 -0.0034676406 0.003358404
000020 f5 70 d3 3b d5 24 6f 3c 71 aa 84 3c 84 e7 c1 bb
       0.0064526745 0.014596184 0.016194554 -0.0059174914
000030 c8 dc 78 bb 31 9d f9 3b cf a8 76 3a 50 16 db 3b
       -0.0037973393 0.0076176156 0.000940931 0.0066860095
000040 ff bf 6e 39 22 ac 32 3c 2c 29 d4 bb 4e 53 98 bb
       0.00022768973 0.0109052975 -0.0064746346 -0.0046486026
000050 72 a3 93 3a ed 98 1d bb 15 6d 09 3b c6 fa a0 3b
       0.001126392 -0.002404745 0.002096956 0.004912707
000060 16 b9 77 3b 22 17 0d 3b bf 58 53 bb 0a 58 2a bc
       0.0037799529 0.002152868 -0.0032248942 -0.010396967
000070 9a 56 b1 bb 11 7d bc 3b 64 00 2f 3c b0 58 de 3b
       -0.005411935 0.0057522138 0.0106812455 0.0067854747
000080 af d1 42 bc ce e7 61 3b 55 a7 88 3b 6e 14 48 b9
       -0.011890813 0.0034470442 0.004170338 -0.00019081097
000090 3d 25 dc b9 52 08 80 bb 69 67 0f bb 5a 53 9d bb
       -0.00041989415 -0.003907242 -0.0021881706 -0.004801196
0000a0 8b 90 c9 3a 72 71 fa 3b 98 15 b6 3b d0 33 d7 3b
       0.001537816 0.0076429183 0.0055567734 0.006567456
0000b0 8e dc 81 39 b8 e7 c6 3b 94 fe a8 3b 36 38 a1 3a
       0.00024769123 0.0060701035 0.005157301 0.0012300077
0000c0 aa c2 08 bc 8e 98 46 bc c7 d1 01 bc cb 57 b7 ba
       -0.008347193 -0.012121333 -0.00792355 -0.0013987956
0000d0 35 33 00 bb 0c a8 36 3c a8 a2 9b 3c 36 83 07 3d
       -0.0019561772 0.011148464 0.018998459 0.033084117
0000e0 c6 af 2a 3d 56 21 02 3d d3 2f b6 3c 15 c7 a8 3b
       0.041671537 0.031770073 0.022239601 0.0051506856
0000f0 27 eb 11 3c 90 02 b7 3b 66 81 f1 bb d3 74 5e bc
       0.008906162 0.0055850223 -0.007370162 -0.013577658
000100 11 94 9b bc 83 c4 92 bc fd 81 f3 bc 12 65 27 bd
       -0.018991502 -0.01791597 -0.02972507 -0.040867873
000110 04 fd 0d bd 58 8a 1a bd 97 39 73 bc 93 a7 93 bc
       -0.034665123 -0.03772959 -0.014845273 -0.018024242
000120 67 46 09 bc ff c2 9f bc e6 6a 52 bc 5c 71 89 3a
       -0.008378602 -0.019502161 -0.012842869 0.0010486054
000130 4c 86 de 39 90 ac 0b bd e9 21 94 bc ec 1b f5 bc
       0.000424432 -0.034100115 -0.018082576 -0.02992054
000140 5c 2c 61 bd 09 4c 69 bd 6e 23 25 bd 29 73 0a bd
       -0.054973945 -0.05695728 -0.04031699 -0.03380123
000150 9c a7 90 39 f8 18 36 bc 37 fb 95 bb f3 44 f4 bb
       0.000275907 -0.011114351 -0.0045770663 -0.0074545084
000160 ef ea 47 bc 1d 38 c5 b8 6c ba fa bb 4f f8 34 bc
       -0.012202009 -9.404144e-05 -0.0076516178 -0.0110455295
000170 b4 7c 1c bb a9 86 58 3c 01 c4 df 3c 54 0b 07 3d
       -0.002387804 0.013215699 0.027315142 0.032969788
000180 fb e4 0b 3c 15 1d ff ba cc 88 47 3c 79 59 2d 3c
       0.00853848 -0.0019463623 0.012178611 0.010580414
000190 09 12 95 3c 4b 04 5b 3c a2 49 72 3c b4 65 bc bb
       0.018197076 0.013367723 0.014788063 -0.0057494286
0001a0 34 d5 b5 bb 9c f7 ef bc e5 5a 0d bd 88 a5 36 bd
       -0.0055490974 -0.029292874 -0.034510512 -0.044591457
0001b0 da 51 2d bd a5 65 48 bd 58 9f ae bc d2 84 ff 3a
       -0.042314388 -0.04892506 -0.021316215 0.001949454
0001c0 df 7d 82 bc 14 b6 80 bc 2b 04 12 bc 63 6d d8 bb
       -0.01592916 -0.015711822 -0.0089121265 -0.006604837
0001d0 9c 54 a6 bb d2 a8 24 bd d4 28 98 3c 76 2b 99 bb
       -0.005076004 -0.040200062 0.018574156 -0.0046743704
0001e0 b7 76 1f bc e0 d6 b1 3b 89 4b c0 3b 8a b0 b9 3c
       -0.009732894 0.0054272264 0.0058683795 0.022667188
0001f0 29 bf 1a 3d aa fa 98 3c da 16 b5 3a 75 76 1f 3b
       0.03777996 0.018674213 0.0013816014 0.002433208
000200 34 6a 0a 3c bd 45 63 3a c9 fc 1e bc 07 65 fd bb
       0.008448172 0.00086697546 -0.009703823 -0.0077329907
000210 12 73 54 bc 76 50 d2 bb 87 ae c2 bc d7 fa e7 bc
       -0.012966888 -0.006418283 -0.023764862 -0.028317852
000220 7d e8 2d 3c 32 8d d8 3c d8 5d 19 3b 28 b3 77 bb
       0.010614512 0.026434515 0.0023401882 -0.0037795994
000230 7b 4f ff bb 44 8f df bc 46 e4 c6 bc 62 4b 08 bd
       -0.007791457 -0.027289994 -0.024278771 -0.033275016
000240 d2 2d 92 bc 29 f5 2f bd 10 98 d1 bc 20 df 7a bd
       -0.017844114 -0.042958412 -0.025585204 -0.061247945
000250 a8 cf 97 bc 32 1b 5d bc 6a 67 c7 3c 85 c0 42 3c
       -0.018531635 -0.013495253 0.024341304 0.011886721
000260 4b 03 e5 3c 74 3a 01 bc 8a e4 00 3c c9 13 d7 3c
       0.027955672 -0.0078874715 0.007866988 0.026254551
000270 3c c2 1b 3d 6a 9f 9d 3c fc 1f a6 3b 10 43 a2 3b
       0.038027033 0.019241054 0.005069731 0.004951842
000280 a7 92 a1 bb f8 b6 f0 ba a2 c1 92 bc 4b 2c c1 ba
       -0.0049308124 -0.0018365076 -0.017914597 -0.0014737932
000290 2a 82 49 bc c5 17 e5 bc b2 0b f9 bc 5e 2d b4 bc
       -0.0122991 -0.027965436 -0.030401085 -0.021994289
0002a0 1a e7 90 3c 40 e5 a4 3b 3b 3e 23 3c a5 d3 3e bc
       0.017688323 0.0050322115 0.009963567 -0.01164714
0002b0 6c 8b 34 bc 2c d3 59 bc 3b eb 80 bc c3 20 b0 bc
       -0.011019569 -0.013294976 -0.015737167 -0.021499997
0002c0 f9 c2 cd bc 89 d5 d7 bc ac ae b9 bc 95 1d 1e bc
       -0.025117384 -0.026346939 -0.022666298 -0.009650608
0002d0 b2 01 5b bc 32 65 89 bc aa 73 d7 3b 82 7b ac 3b
       -0.013367103 -0.016771886 0.0065750675 0.0052637467
0002e0 2d e4 dd 3b 20 da b8 bc 68 c8 aa ba 4d 54 ef ba
       0.0067715854 -0.022564948 -0.0013029696 -0.0018259377
0002f0 3c a6 8b bb e9 80 85 3a 53 e5 ab 3c e9 e0 28 bc
       -0.00426176 0.0010185513 0.020983374 -0.010307529
000300 41 70 28 bb 31 6b 96 bc eb a1 13 bc b7 ee 95 3c
       -0.0025701674 -0.01836166 -0.009010772 0.018302305
000310 8d b2 f5 3c 6c 78 44 3d bd 5d 20 3d 6a c3 36 3c
       0.029992366 0.047966406 0.039151896 0.011154989
000320 db f2 83 3c b9 ed 71 3c d5 48 b1 3c 57 96 2c 3d
       0.016107013 0.01476615 0.021641174 0.042135563
000330 5c 18 4d bc 3e ab d8 bb 8b 1f d3 bb c3 74 83 bc
       -0.012518015 -0.0066122105 -0.006442969 -0.016046887
000340 af 9c de ba 75 f0 ca bb bc 5b 2a bc fa 16 81 ba
       -0.0016983951 -0.0061932155 -0.010397848 -0.0009848766
000350 6b 76 b1 3c e0 ad 1b 3d 9f 54 5b 3d 67 40 d1 3c
       0.021662911 0.038007617 0.053547498 0.025543405
000360 cc 35 50 3b 6d 88 cd 3c c2 8c bc 3c b3 79 cf 3c
       0.0031770347 0.025089467 0.023016337 0.025326585
000370 94 c2 94 3c a7 e2 e2 bb b6 8d 01 bb b4 aa 37 bb
       0.018159188 -0.0069239917 -0.0019768304 -0.002802533
000380 a7 38 c3 bb f4 50 95 3b 32 77 00 3a 38 49 73 bc
       -0.005957681 0.0045567695 0.0004900574 -0.014849
000390 ab 32 fc bb 97 a9 8a 3c df 92 31 3c 24 ad 47 3c
       -0.00769647 0.01692657 0.010838239 0.012187276
0003a0 40 ea 5a bb e6 fe df bb 91 8c cf 3a bc 0b 08 3c
       -0.0033403784 -0.006835806 0.0015834739 0.008303579
0003b0 49 68 90 3c e8 46 99 3b e6 ef 4b bc 37 96 88 bc
       0.017627852 0.004677642 -0.012447333 -0.01667319
0003c0 e3 cb 58 bc 20 de 3c bc 75 90 62 bc 44 b0 3a bb
       -0.013232204 -0.011527568 -0.013828387 -0.002848641
0003d0 02 f2 eb bc b5 0f b7 bc 76 f4 5e 3c 9c ed 0f 3c
       -0.028801922 -0.022346357 0.013608089 0.008784678
0003e0 7a 18 d3 3c bf de 9f 3c 12 fd 2d bc 27 0a 97 bb
       0.025768507 0.019515393 -0.010619419 -0.0046093646
0003f0 8c 0e 2b 3c 2e d0 b3 3c c4 dd cc 3c a2 c3 e6 1c
       0.01044048 0.021949854 0.02500809 1.5270693e-21

lin.weight f4 [1, 2048]
000000 10 1c 70 3c b4 94 8f 3c a6 08 24 bc 14 9a b5 3c
       0.014655128 0.017526962 -0.010011828 0.022168197
000010 16 91 ed bc c3 90 7d bd 49 e8 ed bd f7 7d 47 bd
       -0.028999846 -0.061905634 -0.116165705 -0.048704114
000020 1b 9c 16 bd cf 3a 94 3a 8a 82 c5 bc 49 1a 48 bd
       -0.036769968 0.001130903 -0.024110097 -0.048853192
000030 23 11 88 bd 05 c5 e4 bd 4c 30 9f bc 8d 00 f7 bc
       -0.066438936 -0.11170391 -0.01943221 -0.03015163
000040 7a 2b 89 bd 09 c7 03 bd 70 f8 5f bd e0 4a 00 bd
       -0.066977456 -0.032172237 -0.054680288 -0.031321406
000050 de 2d 60 bd b5 bf 34 bd 0d b6 ba bb 80 51 dc bc
       -0.054731242 -0.04412814 -0.0056979717 -0.026894331
000060 ba e6 1a bd ee ef 0d bd 90 35 29 bd af 90 07 bd
       -0.037817694 -0.034652643 -0.041310847 -0.033096965
000070 62 d7 2c bc 8a c2 87 bb 97 e2 6b bc e4 5c 84 3c
       -0.010549398 -0.004143064 -0.014397285 0.016157575
000080 70 bc 95 3d 9f 14 35 3d 2c e1 21 3d f1 a2 ea ba
       0.07311332 0.04420912 0.03952138 -0.0017901344
000090 e1 a6 0f 3d 0b 4e 27 3c 1f 52 eb 3d 54 ee 44 3e
       0.035071258 0.010211478 0.11490273 0.1923154
0000a0 aa 65 85 3d 21 84 3f bd 60 ea 23 3d 5b 90 02 3e
       0.065135315 -0.046756867 0.04001844 0.1275038
0000b0 5a c6 2c 3e 4e a7 2d 3e 94 cd a0 3b 10 d1 87 3d
       0.1687254 0.16958353 0.0049073193 0.066316724
0000c0 2a a4 f5 3d fc ec 9a 3d 15 74 ed 3d 49 40 ab 3d
       0.119942024 0.075647324 0.115944065 0.08361871
0000d0 3d b5 25 3e a2 58 10 3d ae 16 d2 3d a1 a5 24 3d
       0.16182418 0.035240777 0.10258232 0.04019702
0000e0 80 ed 3a 3d d9 e9 0f 3e 88 34 0b 3d b0 aa bc 3d
       0.045636654 0.1405405 0.033985645 0.092122436
0000f0 7c f2 e6 bc ce e5 a0 3d ed 25 34 3c 62 e7 20 bd
       -0.028191797 0.07856332 0.01099537 -0.039283164
000100 80 71 13 ba c2 53 2b 3d c0 0b 25 bd 6c b2 d1 3c
       -0.0005624518 0.041827925 -0.04029441 0.025597773
000110 93 b5 80 3c f6 fb 2e 3d cd 1f df 3c 55 7e 00 bd
       0.015711581 0.042720757 0.027236843 -0.03137048
000120 3f 98 41 3c 92 b4 3a 3d 43 73 66 3c 09 90 3f bc
       0.011816083 0.04558236 0.0140655665 -0.0116920555
000130 b4 f6 79 bd b4 8b 1b bd 85 2c 00 bd 95 1e 46 bd
       -0.06102629 -0.03797503 -0.031292457 -0.04836901
000140 af ef 84 bc 50 03 e0 bc 49 fb 5e bd 6b 80 60 bd
       -0.016227571 -0.02734533 -0.054438863 -0.05480997
000150 a1 14 b5 bc 2d c7 36 bc a1 e8 32 bd cf 22 79 bc
       -0.022104563 -0.011155886 -0.043678883 -0.015206053
000160 cb b1 a9 bd a8 1d 80 bd cc e5 82 bd f2 fe 24 bd
       -0.082858644 -0.062556565 -0.063914865 -0.040282197
000170 07 11 d2 bc 7a e3 9d 3c 0f 2a 11 3d a5 78 af 3d
       -0.025642885 0.019273508 0.0354405 0.08567933
000180 f2 a5 96 3c 38 c9 bc 3c 4d 0b 25 bb bc e0 e3 3c
       0.018389676 0.023045167 -0.0025183738 0.027817123
000190 c7 02 34 bc de 9f f9 bc 10 9e 2d bd 51 72 7d bd
       -0.01098699 -0.030471738 -0.04238707 -0.0618766
0001a0 3b d5 79 3c 31 8a 2d bc 9b 7c 20 bd ca 93 00 bd
       0.015248592 -0.010592029 -0.039181333 -0.031390943
0001b0 5f ef 21 bd 3d 31 bb bd 08 7e 19 3b 5c 16 85 bd
       -0.039534923 -0.09140251 0.0023421068 -0.06498405
0001c0 f6 e8 18 bd ff 84 f9 bc 61 ca 4e bd ec 26 6f bd
       -0.037331544 -0.030458925 -0.050485972 -0.05838673
0001d0 9f a3 8b bc 3b 40 4f bd 85 28 aa bb e8 c5 7b bd
       -0.017045794 -0.050598364 -0.0051928186 -0.061468035
0001e0 08 49 6b bd 5b b7 b3 bc c1 31 dc bc bf 9a 02 bd
       -0.057442695 -0.021938017 -0.026879193 -0.03188586
0001f0 a0 fc 2d bd 47 ee 20 bc 80 a6 51 bc 10 af c9 3c
       -0.04247725 -0.009822435 -0.012796044 0.02461961
000200 84 1c ac bc dd 61 1f bd 29 85 5f bc 70 0f b5 bb
       -0.021009691 -0.03891169 -0.013642588 -0.005525522
000210 46 57 8c bc 7b 69 27 bc 3d d4 80 3d 32 8a 06 3d
       -0.017131459 -0.01021802 0.06290481 0.032846637
000220 96 34 c5 bc 54 e2 10 3d e3 25 33 3d ab 73 4f 3d
       -0.024072926 0.035372093 0.043737303 0.05064742
000230 c5 d7 47 3d e8 b5 a5 3d ba 34 3b 3d 5d 0c 61 3d
       0.04878976 0.080913365 0.04570458 0.05494343
000240 e5 54 8b 3d 08 68 be 3d fa 25 f4 3d 7c 86 05 3d
       0.06803302 0.09297186 0.11921306 0.032598957
000250 52 1c 80 3b a1 b3 82 3d c3 e7 69 3d a7 85 93 3d
       0.003909626 0.06381918 0.05710579 0.072032265
000260 37 f8 f1 3d f4 2d c5 3d bc b7 a2 3d 65 83 a6 3c
       0.11814921 0.096279055 0.07945201 0.020326326
000270 55 54 6e bc 86 6d 14 3d 4c bb 3d bd 3a e7 1f 3c
       -0.0145464735 0.036237262 -0.0463212 0.009759719
000280 7b a9 c1 3c 0d 77 a0 bb 1b 82 80 bd 49 f2 df bb
       0.023640385 -0.0048970045 -0.06274816 -0.0068343026
000290 e7 0a 13 3d 5b 64 03 3c e0 6f f1 bb 42 04 f5 3c
       0.03589907 0.008019532 -0.007368073 0.029909257
0002a0 1f e8 2d 3d f4 d0 6d 3c c2 b0 c1 bc 89 e1 03 bd
       0.042457696 0.01451515 -0.023643855 -0.03219751
0002b0 d9 f3 64 bd 43 f0 a3 bd 1b 36 ee ba f7 8b ec bc
       -0.055896614 -0.08004811 -0.0018174084 -0.028875334
0002c0 ce 10 e8 bc 4f 9b 1b bc e0 c1 50 bd dc 33 8b bd
       -0.028328326 -0.009497478 -0.050966144 -0.06797001
0002d0 fd b9 32 bc d7 d9 54 bc dc 81 07 bd fb f1 ab bd
       -0.010908601 -0.01299139 -0.033082828 -0.083957635
0002e0 63 59 99 bd 3f 5f 0b bd 36 22 87 bd 63 ca 4b bc
       -0.07487752 -0.03402638 -0.06598322 -0.0124383895
0002f0 39 25 9a bc 3d 2f 41 ba 64 ea 38 bc 1d f0 40 3c
       -0.018816577 -0.0007369405 -0.011286352 0.0117759975
000300 2c a8 e9 3c fc 3b cb ba a1 ec c4 bc 9c d6 85 3c
       0.028522573 -0.0015505548 -0.024038615 0.016337685
000310 f0 02 32 bc a9 d8 19 bd b4 bb 46 bd b9 a7 92 bc
       -0.010864958 -0.03756014 -0.04851885 -0.017902242
000320 09 56 d2 3c f6 5d 71 bc cb 54 10 bb de 08 40 bd
       0.02567579 -0.014731875 -0.0022023197 -0.046883456
000330 7d 3d 0d bd fe 1c 93 bd ea 95 45 bc b7 70 1c bd
       -0.034482468 -0.07183264 -0.012059668 -0.03819343
000340 f1 78 85 38 99 6c d4 bc 0e 09 8d bd 18 05 49 bd
       6.364461e-05 -0.02593069 -0.06886493 -0.049077123
000350 bd 5f 87 bc ef fa 05 bd d6 62 10 bd 3b 93 56 bd
       -0.016525144 -0.032710012 -0.035250507 -0.052386504
000360 4c ea 9e bd 1b c1 12 bd 61 a2 34 bd 38 26 28 bd
       -0.07759532 -0.03582869 -0.04410017 -0.041052073
000370 fd 46 bb bc 05 04 44 bb db be c6 bb 67 3a ad 3b
       -0.022860998 -0.0029909622 -0.006065232 0.005286503
000380 ba 67 ce 3b 37 ab fe bb 37 f8 e2 bc d0 b8 0b 3d
       0.0062989863 -0.0077718752 -0.027706249 0.034111798
000390 8e d9 d6 3c a0 9a 01 3c 0b 68 f0 3c 2f b4 60 3d
       0.026226785 0.007910401 0.029346487 0.054859336
0003a0 5b 70 78 3d 56 b1 4c 3d 1d db 79 3d 99 a2 aa 3d
       0.060654026 0.04997381 0.06099998 0.08331794
0003b0 36 22 8e 3d c6 22 f7 3d 0d 9b d7 3d 9a af d4 3d
       0.06940119 0.120671794 0.105276205 0.10385056
0003c0 fc 7d fa 3d 73 42 22 3e a2 a5 21 3e b7 d8 01 3e
       0.12231061 0.15845661 0.1578584 0.12680326
0003d0 5d 37 f9 3d 87 8d 6a 3d ca 38 d8 3d e8 66 0f 3e
       0.12168763 0.057263877 0.10557707 0.140041
0003e0 7b 41 48 3e 85 27 2c 3e 9e a6 1c 3e 04 6b 02 3e
       0.19556229 0.1681195 0.15297934 0.12736136
0003f0 f6 25 1f 3d 43 1d 91 3d 55 c3 d5 3c f8 ec 0a 3d
       0.03885456 0.07085659 0.026094118 0.033917397
